…
	the input to the following Dense layers with dropouts and acitvated by the 'Sigmoid' function. The network trained using an embedding
	matrix using Google's pre-trained GloVe Word2Vec vectors calculates the probablity of the offensive tweet being a targeted insult or an untargeted profanity.


The Model's layer descriptions are provided as follows - 


__________________________________________________________________________________________________
Layer (type)                    Output Shape         Param #     Connected to                     
==================================================================================================
input_6 (InputLayer)            (None, 191)          0                                            
__________________________________________________________________________________________________
embedding_6 (Embedding)         (None, 191, 200)     4000000     input_6[0][0]                    
__________________________________________________________________________________________________
conv1d_16 (Conv1D)              (None, 190, 100)     40100       embedding_6[0][0]                
__________________________________________________________________________________________________
conv1d_17 (Conv1D)              (None, 189, 100)     60100       embedding_6[0][0]                
__________________________________________________________________________________________________
conv1d_18 (Conv1D)              (None, 188, 100)     80100       embedding_6[0][0]                
__________________________________________________________________________________________________
global_max_pooling1d_16 (Global (None, 100)          0           conv1d_16[0][0]                  
__________________________________________________________________________________________________
global_max_pooling1d_17 (Global (None, 100)          0           conv1d_17[0][0]                  
__________________________________________________________________________________________________
global_max_pooling1d_18 (Global (None, 100)          0           conv1d_18[0][0]                  
__________________________________________________________________________________________________
concatenate_6 (Concatenate)     (None, 300)          0           global_max_pooling1d_16[0][0]    
                                                                 global_max_pooling1d_17[0][0]    
                                                                 global_max_pooling1d_18[0][0]    
__________________________________________________________________________________________________
dense_11 (Dense)                (None, 256)          77056       concatenate_6[0][0]              
__________________________________________________________________________________________________
dropout_6 (Dropout)             (None, 256)          0           dense_11[0][0]                   
__________________________________________________________________________________________________
dense_12 (Dense)                (None, 1)            257         dropout_6[0][0]                  
__________________________________________________________________________________________________
activation_6 (Activation)       (None, 1)            0           dense_12[0][0]                   
==================================================================================================
Total params: 4,257,613
Trainable params: 4,257,613
Non-trainable params: 0
__________________________________________________________________________________________________


------------------------------THANK YOU---------------------------------
