…
	the input to the following Dense layers with dropouts and acitvated by the 'Sigmoid' function. The network trained using an embedding
	matrix using Google's pre-trained GloVe Word2Vec vectors calculates the probablity of the offensive tweet being a targeted insult or an untargeted profanity.


The Model's layer descriptions are provided as follows - 

__________________________________________________________________________________________________
Layer (type)                    Output Shape         Param #     Connected to                     
==================================================================================================
input_2 (InputLayer)            (None, 191)          0                                            
__________________________________________________________________________________________________
embedding_2 (Embedding)         (None, 191, 300)     9000000     input_2[0][0]                    
__________________________________________________________________________________________________
conv1d_4 (Conv1D)               (None, 190, 100)     60100       embedding_2[0][0]                
__________________________________________________________________________________________________
conv1d_5 (Conv1D)               (None, 189, 100)     90100       embedding_2[0][0]                
__________________________________________________________________________________________________
conv1d_6 (Conv1D)               (None, 188, 100)     120100      embedding_2[0][0]                
__________________________________________________________________________________________________
global_max_pooling1d_4 (GlobalM (None, 100)          0           conv1d_4[0][0]                   
__________________________________________________________________________________________________
global_max_pooling1d_5 (GlobalM (None, 100)          0           conv1d_5[0][0]                   
__________________________________________________________________________________________________
global_max_pooling1d_6 (GlobalM (None, 100)          0           conv1d_6[0][0]                   
__________________________________________________________________________________________________
concatenate_2 (Concatenate)     (None, 300)          0           global_max_pooling1d_4[0][0]     
                                                                 global_max_pooling1d_5[0][0]     
                                                                 global_max_pooling1d_6[0][0]     
__________________________________________________________________________________________________
dense_3 (Dense)                 (None, 256)          77056       concatenate_2[0][0]              
__________________________________________________________________________________________________
dropout_2 (Dropout)             (None, 256)          0           dense_3[0][0]                    
__________________________________________________________________________________________________
dense_4 (Dense)                 (None, 1)            257         dropout_2[0][0]                  
__________________________________________________________________________________________________
activation_2 (Activation)       (None, 1)            0           dense_4[0][0]                    
==================================================================================================
Total params: 9,347,613
Trainable params: 9,347,613
Non-trainable params: 0
__________________________________________________________________________________________________

------------------------------THANK YOU---------------------------------
