…
	trained using an embedding matrix using Word2Vec vectors of Google's updated during the training process calculates the probablity of 
	the offensive tweet being a insult targeted at an individual or an organization or at others.

The Model's layer descriptions are provided as follows - 

__________________________________________________________________________________________________
Layer (type)                    Output Shape         Param #     Connected to                     
==================================================================================================
input_6 (InputLayer)            (None, 57)           0                                            
__________________________________________________________________________________________________
embedding_5 (Embedding)         (None, 57, 300)      9000000     input_6[0][0]                    
__________________________________________________________________________________________________
conv1d_13 (Conv1D)              (None, 56, 100)      60100       embedding_5[0][0]                
__________________________________________________________________________________________________
conv1d_14 (Conv1D)              (None, 55, 100)      90100       embedding_5[0][0]                
__________________________________________________________________________________________________
conv1d_15 (Conv1D)              (None, 54, 100)      120100      embedding_5[0][0]                
__________________________________________________________________________________________________
max_pooling1d_7 (MaxPooling1D)  (None, 28, 100)      0           conv1d_13[0][0]                  
__________________________________________________________________________________________________
max_pooling1d_8 (MaxPooling1D)  (None, 27, 100)      0           conv1d_14[0][0]                  
__________________________________________________________________________________________________
max_pooling1d_9 (MaxPooling1D)  (None, 27, 100)      0           conv1d_15[0][0]                  
__________________________________________________________________________________________________
concatenate_5 (Concatenate)     (None, 82, 100)      0           max_pooling1d_7[0][0]            
                                                                 max_pooling1d_8[0][0]            
                                                                 max_pooling1d_9[0][0]            
__________________________________________________________________________________________________
lstm_2 (LSTM)                   (None, 64)           42240       concatenate_5[0][0]              
__________________________________________________________________________________________________
dropout_5 (Dropout)             (None, 64)           0           lstm_2[0][0]                     
__________________________________________________________________________________________________
dense_7 (Dense)                 (None, 1)            65          dropout_5[0][0]                  
__________________________________________________________________________________________________
activation_5 (Activation)       (None, 1)            0           dense_7[0][0]                    
==================================================================================================
Total params: 9,312,605
Trainable params: 9,312,605
Non-trainable params: 0
__________________________________________________________________________________________________

------------------------------THANK YOU---------------------------------
