…
	trained using an embedding matrix using Word2Vec vectors learnt from the available training datasets calculates the probablity of the offensive tweet being a insult targeted at an individual or an organization or at others.


The Model's layer descriptions are provided as follows - 
__________________________________________________________________________________________________
Layer (type)                    Output Shape         Param #     Connected to                     
==================================================================================================
input_12 (InputLayer)           (None, 62)           0                                            
__________________________________________________________________________________________________
embedding_15 (Embedding)        (None, 62, 200)      4000000     input_12[0][0]                   
__________________________________________________________________________________________________
conv1d_32 (Conv1D)              (None, 61, 100)      40100       embedding_15[0][0]               
__________________________________________________________________________________________________
conv1d_33 (Conv1D)              (None, 60, 100)      60100       embedding_15[0][0]               
__________________________________________________________________________________________________
conv1d_34 (Conv1D)              (None, 59, 100)      80100       embedding_15[0][0]               
__________________________________________________________________________________________________
global_max_pooling1d_32 (Global (None, 100)          0           conv1d_32[0][0]                  
__________________________________________________________________________________________________
global_max_pooling1d_33 (Global (None, 100)          0           conv1d_33[0][0]                  
__________________________________________________________________________________________________
global_max_pooling1d_34 (Global (None, 100)          0           conv1d_34[0][0]                  
__________________________________________________________________________________________________
concatenate_10 (Concatenate)    (None, 300)          0           global_max_pooling1d_32[0][0]    
                                                                 global_max_pooling1d_33[0][0]    
                                                                 global_max_pooling1d_34[0][0]    
__________________________________________________________________________________________________
dense_27 (Dense)                (None, 256)          77056       concatenate_10[0][0]             
__________________________________________________________________________________________________
dropout_11 (Dropout)            (None, 256)          0           dense_27[0][0]                   
__________________________________________________________________________________________________
dense_28 (Dense)                (None, 3)            771         dropout_11[0][0]                 
__________________________________________________________________________________________________
activation_6 (Activation)       (None, 3)            0           dense_28[0][0]                   
==================================================================================================
Total params: 4,258,127
Trainable params: 4,258,127
Non-trainable params: 0
__________________________________________________________________________________________________

------------------------------THANK YOU---------------------------------
